…
I0501 17:05:28.234092 26824 net.cpp:322] The NetState phase (0) differed from the phase (1) specified by a rule in layer data
I0501 17:05:28.234092 26824 net.cpp:322] The NetState phase (0) differed from the phase (1) specified by a rule in layer accuracy
I0501 17:05:28.234592 26824 net.cpp:58] Initializing net from parameters: 
name: "catdog"
state {
  phase: TRAIN
  level: 0
  stage: ""
}
layer {
  name: "data"
  type: "Data"
  top: "data"
  top: "label"
  include {
    phase: TRAIN
  }
  data_param {
    source: "../inputtrainldb"
    batch_size: 100
    backend: LEVELDB
  }
}
layer {
  name: "MVN"
  type: "MVN"
  bottom: "data"
  top: "data"
}
layer {
  name: "conv1"
  type: "Convolution"
  bottom: "data"
  top: "conv1"
  param {
    lr_mult: 1
  }
  param {
    lr_mult: 2
  }
  convolution_param {
    num_output: 32
    pad: 2
    kernel_size: 5
    stride: 1
    weight_filler {
      type: "gaussian"
      std: 0.001
    }
    bias_filler {
      type: "constant"
    }
  }
}
layer {
  name: "pool1"
  type: "Pooling"
  bottom: "conv1"
  top: "pool1"
  pooling_param {
    pool: MAX
    kernel_size: 3
    stride: 2
  }
}
layer {
  name: "relu1"
  type: "ReLU"
  bottom: "pool1"
  top: "pool1"
}
layer {
  name: "norm1"
  type: "LRN"
  bottom: "pool1"
  top: "norm1"
  lrn_param {
    local_size: 3
    alpha: 5e-05
    beta: 0.75
    norm_region: WITHIN_CHANNEL
  }
}
layer {
  name: "conv2"
  type: "Convolution"
  bottom: "norm1"
  top: "conv2"
  param {
    lr_mult: 1
  }
  param {
    lr_mult: 2
  }
  convolution_param {
    num_output: 32
    pad: 2
    kernel_size: 5
    stride: 1
    weight_filler {
      type: "gaussian"
      std: 0.01
    }
    bias_filler {
      type: "constant"
    }
  }
}
layer {
  name: "relu2"
  type: "ReLU"
  bottom: "conv2"
  top: "conv2"
}
layer {
  name: "pool2"
  type: "Pooling"
  bottom: "conv2"
  top: "pool2"
  pooling_param {
    pool: AVE
    kernel_size: 3
    stride: 2
  }
}
layer {
  name: "norm2"
  type: "LRN"
  bottom: "pool2"
  top: "norm2"
  lrn_param {
    local_size: 3
    alpha: 5e-05
    beta: 0.75
    norm_region: WITHIN_CHANNEL
  }
}
layer {
  name: "conv3"
  type: "Convolution"
  bottom: "norm2"
  top: "conv3"
  convolution_param {
    num_output: 64
    pad: 2
    kernel_size: 5
    stride: 1
    weight_filler {
      type: "gaussian"
      std: 0.01
    }
    bias_filler {
      type: "constant"
    }
  }
}
layer {
  name: "relu3"
  type: "ReLU"
  bottom: "conv3"
  top: "conv3"
}
layer {
  name: "pool3"
  type: "Pooling"
  bottom: "conv3"
  top: "pool3"
  pooling_param {
    pool: AVE
    kernel_size: 3
    stride: 2
  }
}
layer {
  name: "ip1"
  type: "InnerProduct"
  bottom: "pool3"
  top: "ip1"
  param {
    lr_mult: 1
    decay_mult: 0
  }
  param {
    lr_mult: 2
    decay_mult: 0
  }
  inner_product_param {
    num_output: 128
    weight_filler {
      type: "gaussian"
      std: 0.01
    }
    bias_filler {
      type: "constant"
    }
  }
}
layer {
  name: "ip2"
  type: "InnerProduct"
  bottom: "ip1"
  top: "ip2"
  param {
    lr_mult: 1
    decay_mult: 0
  }
  param {
    lr_mult: 2
    decay_mult: 0
  }
  inner_product_param {
    num_output: 2
    weight_filler {
      type: "gaussian"
      std: 0.01
    }
    bias_filler {
      type: "constant"
    }
  }
}
layer {
  name: "loss"
  type: "SoftmaxWithLoss"
  bottom: "ip2"
  bottom: "label"
  top: "loss"
}
I0501 17:05:28.250092 26824 layer_factory.hpp:77] Creating layer data
I0501 17:05:28.250591 26824 net.cpp:100] Creating Layer data
I0501 17:05:28.250591 26824 net.cpp:408] data -> data
I0501 17:05:28.250591 26824 net.cpp:408] data -> label
I0501 17:05:28.270678 13748 db_leveldb.cpp:18] Opened leveldb ../inputtrainldb
I0501 17:05:28.330178 26824 data_layer.cpp:41] output data size: 100,1,100,100
I0501 17:05:28.349679 26824 net.cpp:150] Setting up data
I0501 17:05:28.349679 26824 net.cpp:157] Top shape: 100 1 100 100 (1000000)
I0501 17:05:28.351677 26824 net.cpp:157] Top shape: 100 (100)
I0501 17:05:28.351677 26824 net.cpp:165] Memory required for data: 4000400
I0501 17:05:28.351677 26824 layer_factory.hpp:77] Creating layer MVN
I0501 17:05:28.351677 26824 net.cpp:100] Creating Layer MVN
I0501 17:05:28.352177 26824 net.cpp:434] MVN <- data
I0501 17:05:28.352177 26824 net.cpp:395] MVN -> data (in-place)
I0501 17:05:28.353176 26824 net.cpp:150] Setting up MVN
I0501 17:05:28.353176 26824 net.cpp:157] Top shape: 100 1 100 100 (1000000)
I0501 17:05:28.353176 26824 net.cpp:165] Memory required for data: 8000400
I0501 17:05:28.353176 26824 layer_factory.hpp:77] Creating layer conv1
I0501 17:05:28.353176 26824 net.cpp:100] Creating Layer conv1
I0501 17:05:28.353677 26824 net.cpp:434] conv1 <- data
I0501 17:05:28.353677 26824 net.cpp:408] conv1 -> conv1
I0501 17:05:28.691182 26824 net.cpp:150] Setting up conv1
I0501 17:05:28.691682 26824 net.cpp:157] Top shape: 100 32 100 100 (32000000)
I0501 17:05:28.693682 26824 net.cpp:165] Memory required for data: 136000400
I0501 17:05:28.694182 26824 layer_factory.hpp:77] Creating layer pool1
I0501 17:05:28.694182 26824 net.cpp:100] Creating Layer pool1
I0501 17:05:28.694182 26824 net.cpp:434] pool1 <- conv1
I0501 17:05:28.694182 26824 net.cpp:408] pool1 -> pool1
I0501 17:05:28.694182 26824 net.cpp:150] Setting up pool1
I0501 17:05:28.694682 26824 net.cpp:157] Top shape: 100 32 50 50 (8000000)
I0501 17:05:28.694682 26824 net.cpp:165] Memory required for data: 168000400
I0501 17:05:28.694682 26824 layer_factory.hpp:77] Creating layer relu1
I0501 17:05:28.694682 26824 net.cpp:100] Creating Layer relu1
I0501 17:05:28.694682 26824 net.cpp:434] relu1 <- pool1
I0501 17:05:28.695183 26824 net.cpp:395] relu1 -> pool1 (in-place)
I0501 17:05:28.695183 26824 net.cpp:150] Setting up relu1
I0501 17:05:28.695183 26824 net.cpp:157] Top shape: 100 32 50 50 (8000000)
I0501 17:05:28.695682 26824 net.cpp:165] Memory required for data: 200000400
I0501 17:05:28.695682 26824 layer_factory.hpp:77] Creating layer norm1
I0501 17:05:28.695682 26824 net.cpp:100] Creating Layer norm1
I0501 17:05:28.695682 26824 net.cpp:434] norm1 <- pool1
I0501 17:05:28.695682 26824 net.cpp:408] norm1 -> norm1
I0501 17:05:28.699167 26824 net.cpp:150] Setting up norm1
I0501 17:05:28.699345 26824 net.cpp:157] Top shape: 100 32 50 50 (8000000)
I0501 17:05:28.699345 26824 net.cpp:165] Memory required for data: 232000400
I0501 17:05:28.699345 26824 layer_factory.hpp:77] Creating layer conv2
I0501 17:05:28.699345 26824 net.cpp:100] Creating Layer conv2
I0501 17:05:28.699345 26824 net.cpp:434] conv2 <- norm1
I0501 17:05:28.699851 26824 net.cpp:408] conv2 -> conv2
I0501 17:05:28.702348 26824 net.cpp:150] Setting up conv2
I0501 17:05:28.702348 26824 net.cpp:157] Top shape: 100 32 50 50 (8000000)
I0501 17:05:28.702348 26824 net.cpp:165] Memory required for data: 264000400
I0501 17:05:28.702847 26824 layer_factory.hpp:77] Creating layer relu2
I0501 17:05:28.702847 26824 net.cpp:100] Creating Layer relu2
I0501 17:05:28.702847 26824 net.cpp:434] relu2 <- conv2
I0501 17:05:28.702847 26824 net.cpp:395] relu2 -> conv2 (in-place)
I0501 17:05:28.703348 26824 net.cpp:150] Setting up relu2
I0501 17:05:28.703348 26824 net.cpp:157] Top shape: 100 32 50 50 (8000000)
I0501 17:05:28.703348 26824 net.cpp:165] Memory required for data: 296000400
I0501 17:05:28.703348 26824 layer_factory.hpp:77] Creating layer pool2
I0501 17:05:28.703847 26824 net.cpp:100] Creating Layer pool2
I0501 17:05:28.703847 26824 net.cpp:434] pool2 <- conv2
I0501 17:05:28.703847 26824 net.cpp:408] pool2 -> pool2
I0501 17:05:28.704349 26824 net.cpp:150] Setting up pool2
I0501 17:05:28.704349 26824 net.cpp:157] Top shape: 100 32 25 25 (2000000)
I0501 17:05:28.704349 26824 net.cpp:165] Memory required for data: 304000400
I0501 17:05:28.704848 26824 layer_factory.hpp:77] Creating layer norm2
I0501 17:05:28.704848 26824 net.cpp:100] Creating Layer norm2
I0501 17:05:28.704848 26824 net.cpp:434] norm2 <- pool2
I0501 17:05:28.705348 26824 net.cpp:408] norm2 -> norm2
I0501 17:05:28.706848 26824 net.cpp:150] Setting up norm2
I0501 17:05:28.706848 26824 net.cpp:157] Top shape: 100 32 25 25 (2000000)
I0501 17:05:28.706848 26824 net.cpp:165] Memory required for data: 312000400
I0501 17:05:28.707348 26824 layer_factory.hpp:77] Creating layer conv3
I0501 17:05:28.707348 26824 net.cpp:100] Creating Layer conv3
I0501 17:05:28.707348 26824 net.cpp:434] conv3 <- norm2
I0501 17:05:28.707850 26824 net.cpp:408] conv3 -> conv3
I0501 17:05:28.709349 26824 net.cpp:150] Setting up conv3
I0501 17:05:28.709848 26824 net.cpp:157] Top shape: 100 64 25 25 (4000000)
I0501 17:05:28.711349 26824 net.cpp:165] Memory required for data: 328000400
I0501 17:05:28.711848 26824 layer_factory.hpp:77] Creating layer relu3
I0501 17:05:28.711848 26824 net.cpp:100] Creating Layer relu3
I0501 17:05:28.711848 26824 net.cpp:434] relu3 <- conv3
I0501 17:05:28.711848 26824 net.cpp:395] relu3 -> conv3 (in-place)
I0501 17:05:28.712348 26824 net.cpp:150] Setting up relu3
I0501 17:05:28.712348 26824 net.cpp:157] Top shape: 100 64 25 25 (4000000)
I0501 17:05:28.712348 26824 net.cpp:165] Memory required for data: 344000400
I0501 17:05:28.712348 26824 layer_factory.hpp:77] Creating layer pool3
I0501 17:05:28.712348 26824 net.cpp:100] Creating Layer pool3
I0501 17:05:28.712848 26824 net.cpp:434] pool3 <- conv3
I0501 17:05:28.712848 26824 net.cpp:408] pool3 -> pool3
I0501 17:05:28.713349 26824 net.cpp:150] Setting up pool3
I0501 17:05:28.713349 26824 net.cpp:157] Top shape: 100 64 12 12 (921600)
I0501 17:05:28.713349 26824 net.cpp:165] Memory required for data: 347686800
I0501 17:05:28.713847 26824 layer_factory.hpp:77] Creating layer ip1
I0501 17:05:28.713847 26824 net.cpp:100] Creating Layer ip1
I0501 17:05:28.713847 26824 net.cpp:434] ip1 <- pool3
I0501 17:05:28.713847 26824 net.cpp:408] ip1 -> ip1
I0501 17:05:28.724848 26824 net.cpp:150] Setting up ip1
I0501 17:05:28.725349 26824 net.cpp:157] Top shape: 100 128 (12800)
I0501 17:05:28.726851 26824 net.cpp:165] Memory required for data: 347738000
I0501 17:05:28.726851 26824 layer_factory.hpp:77] Creating layer ip2
I0501 17:05:28.726851 26824 net.cpp:100] Creating Layer ip2
I0501 17:05:28.727349 26824 net.cpp:434] ip2 <- ip1
I0501 17:05:28.727349 26824 net.cpp:408] ip2 -> ip2
I0501 17:05:28.727349 26824 net.cpp:150] Setting up ip2
I0501 17:05:28.727847 26824 net.cpp:157] Top shape: 100 2 (200)
I0501 17:05:28.727847 26824 net.cpp:165] Memory required for data: 347738800
I0501 17:05:28.727847 26824 layer_factory.hpp:77] Creating layer loss
I0501 17:05:28.727847 26824 net.cpp:100] Creating Layer loss
I0501 17:05:28.728348 26824 net.cpp:434] loss <- ip2
I0501 17:05:28.728348 26824 net.cpp:434] loss <- label
I0501 17:05:28.728348 26824 net.cpp:408] loss -> loss
I0501 17:05:28.728348 26824 layer_factory.hpp:77] Creating layer loss
…
I0501 17:05:28.731848 26824 upgrade_proto.cpp:61] Successfully upgraded file specified using deprecated V1LayerParameter
I0501 17:05:28.731848 26824 solver.cpp:181] Creating test net (#0) specified by net file: catdog_train.prototxt
I0501 17:05:28.731848 26824 net.cpp:322] The NetState phase (1) differed from the phase (0) specified by a rule in layer data
I0501 17:05:28.731848 26824 net.cpp:58] Initializing net from parameters: 
name: "catdog"
state {
  phase: TEST
}
layer {
  name: "data"
  type: "Data"
  top: "data"
  top: "label"
  include {
    phase: TEST
  }
  data_param {
    source: "../inputtrainldb_TT"
    batch_size: 100
    backend: LEVELDB
  }
}
layer {
  name: "MVN"
  type: "MVN"
  bottom: "data"
  top: "data"
}
layer {
  name: "conv1"
  type: "Convolution"
  bottom: "data"
  top: "conv1"
  param {
    lr_mult: 1
  }
  param {
    lr_mult: 2
  }
  convolution_param {
    num_output: 32
    pad: 2
    kernel_size: 5
    stride: 1
    weight_filler {
      type: "gaussian"
      std: 0.001
    }
    bias_filler {
      type: "constant"
    }
  }
}
layer {
  name: "pool1"
  type: "Pooling"
  bottom: "conv1"
  top: "pool1"
  pooling_param {
    pool: MAX
    kernel_size: 3
    stride: 2
  }
}
layer {
  name: "relu1"
  type: "ReLU"
  bottom: "pool1"
  top: "pool1"
}
layer {
  name: "norm1"
  type: "LRN"
  bottom: "pool1"
  top: "norm1"
  lrn_param {
    local_size: 3
    alpha: 5e-05
    beta: 0.75
    norm_region: WITHIN_CHANNEL
  }
}
layer {
  name: "conv2"
  type: "Convolution"
  bottom: "norm1"
  top: "conv2"
  param {
    lr_mult: 1
  }
  param {
    lr_mult: 2
  }
  convolution_param {
    num_output: 32
    pad: 2
    kernel_size: 5
    stride: 1
    weight_filler {
      type: "gaussian"
      std: 0.01
    }
    bias_filler {
      type: "constant"
    }
  }
}
layer {
  name: "relu2"
  type: "ReLU"
  bottom: "conv2"
  top: "conv2"
}
layer {
  name: "pool2"
  type: "Pooling"
  bottom: "conv2"
  top: "pool2"
  pooling_param {
    pool: AVE
    kernel_size: 3
    stride: 2
  }
}
layer {
  name: "norm2"
  type: "LRN"
  bottom: "pool2"
  top: "norm2"
  lrn_param {
    local_size: 3
    alpha: 5e-05
    beta: 0.75
    norm_region: WITHIN_CHANNEL
  }
}
layer {
  name: "conv3"
  type: "Convolution"
  bottom: "norm2"
  top: "conv3"
  convolution_param {
    num_output: 64
    pad: 2
    kernel_size: 5
    stride: 1
    weight_filler {
      type: "gaussian"
      std: 0.01
    }
    bias_filler {
      type: "constant"
    }
  }
}
layer {
  name: "relu3"
  type: "ReLU"
  bottom: "conv3"
  top: "conv3"
}
layer {
  name: "pool3"
  type: "Pooling"
  bottom: "conv3"
  top: "pool3"
  pooling_param {
    pool: AVE
    kernel_size: 3
    stride: 2
  }
}
layer {
  name: "ip1"
  type: "InnerProduct"
  bottom: "pool3"
  top: "ip1"
  param {
    lr_mult: 1
    decay_mult: 0
  }
  param {
    lr_mult: 2
    decay_mult: 0
  }
  inner_product_param {
    num_output: 128
    weight_filler {
      type: "gaussian"
      std: 0.01
    }
    bias_filler {
      type: "constant"
    }
  }
}
layer {
  name: "ip2"
  type: "InnerProduct"
  bottom: "ip1"
  top: "ip2"
  param {
    lr_mult: 1
    decay_mult: 0
  }
  param {
    lr_mult: 2
    decay_mult: 0
  }
  inner_product_param {
    num_output: 2
    weight_filler {
      type: "gaussian"
      std: 0.01
    }
    bias_filler {
      type: "constant"
    }
  }
}
layer {
  name: "accuracy"
  type: "Accuracy"
  bottom: "ip2"
  bottom: "label"
  top: "accuracy"
  include {
    phase: TEST
  }
}
layer {
  name: "loss"
  type: "SoftmaxWithLoss"
  bottom: "ip2"
  bottom: "label"
  top: "loss"
}
I0501 17:05:28.749347 26824 layer_factory.hpp:77] Creating layer data
I0501 17:05:28.749347 26824 net.cpp:100] Creating Layer data
I0501 17:05:28.749848 26824 net.cpp:408] data -> data
I0501 17:05:28.749848 26824 net.cpp:408] data -> label
I0501 17:05:28.752849 27920 db_leveldb.cpp:18] Opened leveldb ../inputtrainldb_TT
I0501 17:05:28.758848 26824 data_layer.cpp:41] output data size: 100,1,100,100
I0501 17:05:28.765847 26824 net.cpp:150] Setting up data
I0501 17:05:28.765847 26824 net.cpp:157] Top shape: 100 1 100 100 (1000000)
I0501 17:05:28.765847 26824 net.cpp:157] Top shape: 100 (100)
I0501 17:05:28.766350 26824 net.cpp:165] Memory required for data: 4000400
I0501 17:05:28.766847 26824 layer_factory.hpp:77] Creating layer label_data_1_split
I0501 17:05:28.767349 26824 net.cpp:100] Creating Layer label_data_1_split
I0501 17:05:28.767349 31384 blocking_queue.cpp:50] Waiting for data
I0501 17:05:28.767349 26824 net.cpp:434] label_data_1_split <- label
I0501 17:05:28.767848 26824 net.cpp:408] label_data_1_split -> label_data_1_split_0
I0501 17:05:28.767848 26824 net.cpp:408] label_data_1_split -> label_data_1_split_1
I0501 17:05:28.767848 26824 net.cpp:150] Setting up label_data_1_split
I0501 17:05:28.767848 26824 net.cpp:157] Top shape: 100 (100)
I0501 17:05:28.768347 26824 net.cpp:157] Top shape: 100 (100)
I0501 17:05:28.768347 26824 net.cpp:165] Memory required for data: 4001200
I0501 17:05:28.768347 26824 layer_factory.hpp:77] Creating layer MVN
I0501 17:05:28.768347 26824 net.cpp:100] Creating Layer MVN
I0501 17:05:28.768848 26824 net.cpp:434] MVN <- data
I0501 17:05:28.768848 26824 net.cpp:395] MVN -> data (in-place)
I0501 17:05:28.768848 26824 net.cpp:150] Setting up MVN
I0501 17:05:28.769348 26824 net.cpp:157] Top shape: 100 1 100 100 (1000000)
I0501 17:05:28.769348 26824 net.cpp:165] Memory required for data: 8001200
I0501 17:05:28.769348 26824 layer_factory.hpp:77] Creating layer conv1
I0501 17:05:28.769348 26824 net.cpp:100] Creating Layer conv1
I0501 17:05:28.769348 26824 net.cpp:434] conv1 <- data
I0501 17:05:28.769848 26824 net.cpp:408] conv1 -> conv1
I0501 17:05:28.770849 26824 net.cpp:150] Setting up conv1
I0501 17:05:28.771349 26824 net.cpp:157] Top shape: 100 32 100 100 (32000000)
I0501 17:05:28.771349 26824 net.cpp:165] Memory required for data: 136001200
I0501 17:05:28.771349 26824 layer_factory.hpp:77] Creating layer pool1
I0501 17:05:28.771349 26824 net.cpp:100] Creating Layer pool1
I0501 17:05:28.771349 26824 net.cpp:434] pool1 <- conv1
I0501 17:05:28.771849 26824 net.cpp:408] pool1 -> pool1
I0501 17:05:28.771849 26824 net.cpp:150] Setting up pool1
I0501 17:05:28.771849 26824 net.cpp:157] Top shape: 100 32 50 50 (8000000)
I0501 17:05:28.771849 26824 net.cpp:165] Memory required for data: 168001200
I0501 17:05:28.772349 26824 layer_factory.hpp:77] Creating layer relu1
I0501 17:05:28.772349 26824 net.cpp:100] Creating Layer relu1
I0501 17:05:28.772349 26824 net.cpp:434] relu1 <- pool1
I0501 17:05:28.772850 26824 net.cpp:395] relu1 -> pool1 (in-place)
I0501 17:05:28.772850 26824 net.cpp:150] Setting up relu1
I0501 17:05:28.773350 26824 net.cpp:157] Top shape: 100 32 50 50 (8000000)
I0501 17:05:28.773350 26824 net.cpp:165] Memory required for data: 200001200
I0501 17:05:28.773350 26824 layer_factory.hpp:77] Creating layer norm1
I0501 17:05:28.773350 26824 net.cpp:100] Creating Layer norm1
I0501 17:05:28.773350 26824 net.cpp:434] norm1 <- pool1
I0501 17:05:28.773849 26824 net.cpp:408] norm1 -> norm1
I0501 17:05:28.777348 26824 net.cpp:150] Setting up norm1
I0501 17:05:28.777348 26824 net.cpp:157] Top shape: 100 32 50 50 (8000000)
I0501 17:05:28.777848 26824 net.cpp:165] Memory required for data: 232001200
I0501 17:05:28.780848 26824 layer_factory.hpp:77] Creating layer conv2
I0501 17:05:28.781348 26824 net.cpp:100] Creating Layer conv2
I0501 17:05:28.781848 26824 net.cpp:434] conv2 <- norm1
I0501 17:05:28.781848 26824 net.cpp:408] conv2 -> conv2
I0501 17:05:28.783850 26824 net.cpp:150] Setting up conv2
I0501 17:05:28.783850 26824 net.cpp:157] Top shape: 100 32 50 50 (8000000)
I0501 17:05:28.784349 26824 net.cpp:165] Memory required for data: 264001200
I0501 17:05:28.784349 26824 layer_factory.hpp:77] Creating layer relu2
I0501 17:05:28.784349 26824 net.cpp:100] Creating Layer relu2
I0501 17:05:28.784349 26824 net.cpp:434] relu2 <- conv2
I0501 17:05:28.784849 26824 net.cpp:395] relu2 -> conv2 (in-place)
I0501 17:05:28.785851 26824 net.cpp:150] Setting up relu2
I0501 17:05:28.788348 26824 net.cpp:157] Top shape: 100 32 50 50 (8000000)
I0501 17:05:28.790848 26824 net.cpp:165] Memory required for data: 296001200
I0501 17:05:28.791348 26824 layer_factory.hpp:77] Creating layer pool2
I0501 17:05:28.791849 26824 net.cpp:100] Creating Layer pool2
I0501 17:05:28.792351 26824 net.cpp:434] pool2 <- conv2
I0501 17:05:28.793485 26824 net.cpp:408] pool2 -> pool2
I0501 17:05:28.793851 26824 net.cpp:150] Setting up pool2
I0501 17:05:28.793851 26824 net.cpp:157] Top shape: 100 32 25 25 (2000000)
I0501 17:05:28.794348 26824 net.cpp:165] Memory required for data: 304001200
I0501 17:05:28.794848 26824 layer_factory.hpp:77] Creating layer norm2
I0501 17:05:28.794848 26824 net.cpp:100] Creating Layer norm2
I0501 17:05:28.795349 26824 net.cpp:434] norm2 <- pool2
I0501 17:05:28.795349 26824 net.cpp:408] norm2 -> norm2
I0501 17:05:28.797353 26824 net.cpp:150] Setting up norm2
I0501 17:05:28.797353 26824 net.cpp:157] Top shape: 100 32 25 25 (2000000)
I0501 17:05:28.797353 26824 net.cpp:165] Memory required for data: 312001200
I0501 17:05:28.797848 26824 layer_factory.hpp:77] Creating layer conv3
I0501 17:05:28.797848 26824 net.cpp:100] Creating Layer conv3
I0501 17:05:28.797848 26824 net.cpp:434] conv3 <- norm2
I0501 17:05:28.798348 26824 net.cpp:408] conv3 -> conv3
I0501 17:05:28.800350 26824 net.cpp:150] Setting up conv3
I0501 17:05:28.800848 26824 net.cpp:157] Top shape: 100 64 25 25 (4000000)
I0501 17:05:28.804350 26824 net.cpp:165] Memory required for data: 328001200
I0501 17:05:28.804848 26824 layer_factory.hpp:77] Creating layer relu3
I0501 17:05:28.805349 26824 net.cpp:100] Creating Layer relu3
I0501 17:05:28.805349 26824 net.cpp:434] relu3 <- conv3
I0501 17:05:28.805349 26824 net.cpp:395] relu3 -> conv3 (in-place)
I0501 17:05:28.805848 26824 net.cpp:150] Setting up relu3
I0501 17:05:28.806349 26824 net.cpp:157] Top shape: 100 64 25 25 (4000000)
I0501 17:05:28.806349 26824 net.cpp:165] Memory required for data: 344001200
I0501 17:05:28.806849 26824 layer_factory.hpp:77] Creating layer pool3
I0501 17:05:28.806849 26824 net.cpp:100] Creating Layer pool3
I0501 17:05:28.806849 26824 net.cpp:434] pool3 <- conv3
I0501 17:05:28.806849 26824 net.cpp:408] pool3 -> pool3
I0501 17:05:28.808351 26824 net.cpp:150] Setting up pool3
I0501 17:05:28.808848 26824 net.cpp:157] Top shape: 100 64 12 12 (921600)
I0501 17:05:28.808848 26824 net.cpp:165] Memory required for data: 347687600
I0501 17:05:28.809348 26824 layer_factory.hpp:77] Creating layer ip1
I0501 17:05:28.809348 26824 net.cpp:100] Creating Layer ip1
I0501 17:05:28.809348 26824 net.cpp:434] ip1 <- pool3
I0501 17:05:28.809348 26824 net.cpp:408] ip1 -> ip1
I0501 17:05:28.820850 26824 net.cpp:150] Setting up ip1
I0501 17:05:28.820850 26824 net.cpp:157] Top shape: 100 128 (12800)
I0501 17:05:28.822847 26824 net.cpp:165] Memory required for data: 347738800
I0501 17:05:28.823848 26824 layer_factory.hpp:77] Creating layer ip2
I0501 17:05:28.823848 26824 net.cpp:100] Creating Layer ip2
I0501 17:05:28.823848 26824 net.cpp:434] ip2 <- ip1
I0501 17:05:28.823848 26824 net.cpp:408] ip2 -> ip2
I0501 17:05:28.824347 26824 net.cpp:150] Setting up ip2
I0501 17:05:28.824347 26824 net.cpp:157] Top shape: 100 2 (200)
I0501 17:05:28.824347 26824 net.cpp:165] Memory required for data: 347739600
I0501 17:05:28.824347 26824 layer_factory.hpp:77] Creating layer ip2_ip2_0_split
I0501 17:05:28.824347 26824 net.cpp:100] Creating Layer ip2_ip2_0_split
I0501 17:05:28.824847 26824 net.cpp:434] ip2_ip2_0_split <- ip2
I0501 17:05:28.824847 26824 net.cpp:408] ip2_ip2_0_split -> ip2_ip2_0_split_0
I0501 17:05:28.824847 26824 net.cpp:408] ip2_ip2_0_split -> ip2_ip2_0_split_1
I0501 17:05:28.824847 26824 net.cpp:150] Setting up ip2_ip2_0_split
I0501 17:05:28.824847 26824 net.cpp:157] Top shape: 100 2 (200)
I0501 17:05:28.824847 26824 net.cpp:157] Top shape: 100 2 (200)
I0501 17:05:28.825348 26824 net.cpp:165] Memory required for data: 347741200
I0501 17:05:28.825348 26824 layer_factory.hpp:77] Creating layer accuracy
I0501 17:05:28.825348 26824 net.cpp:100] Creating Layer accuracy
I0501 17:05:28.825348 26824 net.cpp:434] accuracy <- ip2_ip2_0_split_0
I0501 17:05:28.825348 26824 net.cpp:434] accuracy <- label_data_1_split_0
I0501 17:05:28.825348 26824 net.cpp:408] accuracy -> accuracy
…
