…
I0503 20:43:30.374316 20240 upgrade_proto.cpp:53] Attempting to upgrade input file specified using deprecated V1LayerParameter: models\test.prototxt
I0503 20:43:30.374316 20240 upgrade_proto.cpp:61] Successfully upgraded file specified using deprecated V1LayerParameter
I0503 20:43:30.375288 20240 net.cpp:58] Initializing net from parameters: 
name: "catdog"
state {
  phase: TEST
  level: 0
  stage: ""
}
layer {
  name: "data"
  type: "Data"
  top: "data"
  top: "label"
  include {
    phase: TEST
  }
  data_param {
    source: "data/test_img_lmdb"
    batch_size: 100
    backend: LMDB
  }
}
layer {
  name: "MVN"
  type: "MVN"
  bottom: "data"
  top: "data"
}
layer {
  name: "conv1"
  type: "Convolution"
  bottom: "data"
  top: "conv1"
  param {
    lr_mult: 1
  }
  param {
    lr_mult: 2
  }
  convolution_param {
    num_output: 32
    pad: 2
    kernel_size: 5
    stride: 1
    weight_filler {
      type: "gaussian"
      std: 0.001
    }
    bias_filler {
      type: "constant"
    }
  }
}
layer {
  name: "relu1"
  type: "ReLU"
  bottom: "conv1"
  top: "conv1"
}
layer {
  name: "pool1"
  type: "Pooling"
  bottom: "conv1"
  top: "pool1"
  pooling_param {
    pool: MAX
    kernel_size: 3
    stride: 2
  }
}
layer {
  name: "norm1"
  type: "LRN"
  bottom: "pool1"
  top: "norm1"
  lrn_param {
    local_size: 3
    alpha: 5e-05
    beta: 0.75
    norm_region: WITHIN_CHANNEL
  }
}
layer {
  name: "conv2"
  type: "Convolution"
  bottom: "norm1"
  top: "conv2"
  param {
    lr_mult: 1
  }
  param {
    lr_mult: 2
  }
  convolution_param {
    num_output: 32
    pad: 2
    kernel_size: 5
    stride: 1
    weight_filler {
      type: "gaussian"
      std: 0.01
    }
    bias_filler {
      type: "constant"
    }
  }
}
layer {
  name: "relu2"
  type: "ReLU"
  bottom: "conv2"
  top: "conv2"
}
layer {
  name: "pool2"
  type: "Pooling"
  bottom: "conv2"
  top: "pool2"
  pooling_param {
    pool: AVE
    kernel_size: 3
    stride: 2
  }
}
layer {
  name: "norm2"
  type: "LRN"
  bottom: "pool2"
  top: "norm2"
  lrn_param {
    local_size: 3
    alpha: 5e-05
    beta: 0.75
    norm_region: WITHIN_CHANNEL
  }
}
layer {
  name: "conv3"
  type: "Convolution"
  bottom: "norm2"
  top: "conv3"
  convolution_param {
    num_output: 64
    pad: 2
    kernel_size: 5
    stride: 1
    weight_filler {
      type: "gaussian"
      std: 0.01
    }
    bias_filler {
      type: "constant"
    }
  }
}
layer {
  name: "relu3"
  type: "ReLU"
  bottom: "conv3"
  top: "conv3"
}
layer {
  name: "pool3"
  type: "Pooling"
  bottom: "conv3"
  top: "pool3"
  pooling_param {
    pool: AVE
    kernel_size: 3
    stride: 2
  }
}
layer {
  name: "ip1"
  type: "InnerProduct"
  bottom: "pool3"
  top: "ip1"
  param {
    lr_mult: 1
    decay_mult: 0
  }
  param {
    lr_mult: 2
    decay_mult: 0
  }
  inner_product_param {
    num_output: 128
    weight_filler {
      type: "gaussian"
      std: 0.01
    }
    bias_filler {
      type: "constant"
    }
  }
}
layer {
  name: "ip2"
  type: "InnerProduct"
  bottom: "ip1"
  top: "ip2"
  param {
    lr_mult: 1
    decay_mult: 0
  }
  param {
    lr_mult: 2
    decay_mult: 0
  }
  inner_product_param {
    num_output: 2
    weight_filler {
      type: "gaussian"
      std: 0.01
    }
    bias_filler {
      type: "constant"
    }
  }
}
layer {
  name: "loss"
  type: "SoftmaxWithLoss"
  bottom: "ip2"
  bottom: "label"
  top: "loss"
}
I0503 20:43:30.387287 20240 layer_factory.hpp:77] Creating layer data
I0503 20:43:30.388288 20240 net.cpp:100] Creating Layer data
I0503 20:43:30.388288 20240 net.cpp:408] data -> data
I0503 20:43:30.388288 20240 net.cpp:408] data -> label
I0503 20:43:30.401286  1144 db_lmdb.cpp:40] Opened lmdb data/test_img_lmdb
I0503 20:43:30.452301 20240 data_layer.cpp:41] output data size: 100,1,100,100
I0503 20:43:30.458302 20240 net.cpp:150] Setting up data
I0503 20:43:30.458302 20240 net.cpp:157] Top shape: 100 1 100 100 (1000000)
I0503 20:43:30.459301 20240 net.cpp:157] Top shape: 100 (100)
I0503 20:43:30.459301 20240 net.cpp:165] Memory required for data: 4000400
I0503 20:43:30.459301 20240 layer_factory.hpp:77] Creating layer MVN
I0503 20:43:30.459301 20240 net.cpp:100] Creating Layer MVN
I0503 20:43:30.460301 20240 net.cpp:434] MVN <- data
I0503 20:43:30.460301 20240 net.cpp:395] MVN -> data (in-place)
I0503 20:43:30.461302 20240 net.cpp:150] Setting up MVN
I0503 20:43:30.461302 20240 net.cpp:157] Top shape: 100 1 100 100 (1000000)
I0503 20:43:30.462301 20240 net.cpp:165] Memory required for data: 8000400
I0503 20:43:30.462301 20240 layer_factory.hpp:77] Creating layer conv1
I0503 20:43:30.462301 20240 net.cpp:100] Creating Layer conv1
I0503 20:43:30.462301 20240 net.cpp:434] conv1 <- data
I0503 20:43:30.462301 20240 net.cpp:408] conv1 -> conv1
I0503 20:43:30.727134 20240 net.cpp:150] Setting up conv1
I0503 20:43:30.727134 20240 net.cpp:157] Top shape: 100 32 100 100 (32000000)
I0503 20:43:30.727778 20240 net.cpp:165] Memory required for data: 136000400
I0503 20:43:30.727778 20240 layer_factory.hpp:77] Creating layer relu1
I0503 20:43:30.727778 20240 net.cpp:100] Creating Layer relu1
I0503 20:43:30.727778 20240 net.cpp:434] relu1 <- conv1
I0503 20:43:30.728135 20240 net.cpp:395] relu1 -> conv1 (in-place)
I0503 20:43:30.728135 20240 net.cpp:150] Setting up relu1
I0503 20:43:30.728135 20240 net.cpp:157] Top shape: 100 32 100 100 (32000000)
I0503 20:43:30.728135 20240 net.cpp:165] Memory required for data: 264000400
I0503 20:43:30.728636 20240 layer_factory.hpp:77] Creating layer pool1
I0503 20:43:30.728636 20240 net.cpp:100] Creating Layer pool1
I0503 20:43:30.728636 20240 net.cpp:434] pool1 <- conv1
I0503 20:43:30.728636 20240 net.cpp:408] pool1 -> pool1
I0503 20:43:30.728636 20240 net.cpp:150] Setting up pool1
I0503 20:43:30.728636 20240 net.cpp:157] Top shape: 100 32 50 50 (8000000)
I0503 20:43:30.729135 20240 net.cpp:165] Memory required for data: 296000400
I0503 20:43:30.729135 20240 layer_factory.hpp:77] Creating layer norm1
I0503 20:43:30.729135 20240 net.cpp:100] Creating Layer norm1
I0503 20:43:30.729135 20240 net.cpp:434] norm1 <- pool1
I0503 20:43:30.729135 20240 net.cpp:408] norm1 -> norm1
I0503 20:43:30.732141 20240 net.cpp:150] Setting up norm1
I0503 20:43:30.732141 20240 net.cpp:157] Top shape: 100 32 50 50 (8000000)
I0503 20:43:30.732141 20240 net.cpp:165] Memory required for data: 328000400
I0503 20:43:30.732635 20240 layer_factory.hpp:77] Creating layer conv2
I0503 20:43:30.732635 20240 net.cpp:100] Creating Layer conv2
I0503 20:43:30.732635 20240 net.cpp:434] conv2 <- norm1
I0503 20:43:30.732635 20240 net.cpp:408] conv2 -> conv2
I0503 20:43:30.734684 20240 net.cpp:150] Setting up conv2
I0503 20:43:30.734684 20240 net.cpp:157] Top shape: 100 32 50 50 (8000000)
I0503 20:43:30.734684 20240 net.cpp:165] Memory required for data: 360000400
I0503 20:43:30.734684 20240 layer_factory.hpp:77] Creating layer relu2
I0503 20:43:30.735684 20240 net.cpp:100] Creating Layer relu2
I0503 20:43:30.735684 20240 net.cpp:434] relu2 <- conv2
I0503 20:43:30.735684 20240 net.cpp:395] relu2 -> conv2 (in-place)
I0503 20:43:30.735684 20240 net.cpp:150] Setting up relu2
I0503 20:43:30.735684 20240 net.cpp:157] Top shape: 100 32 50 50 (8000000)
I0503 20:43:30.735684 20240 net.cpp:165] Memory required for data: 392000400
I0503 20:43:30.736685 20240 layer_factory.hpp:77] Creating layer pool2
I0503 20:43:30.736685 20240 net.cpp:100] Creating Layer pool2
I0503 20:43:30.736685 20240 net.cpp:434] pool2 <- conv2
I0503 20:43:30.736685 20240 net.cpp:408] pool2 -> pool2
I0503 20:43:30.736685 20240 net.cpp:150] Setting up pool2
I0503 20:43:30.736685 20240 net.cpp:157] Top shape: 100 32 25 25 (2000000)
I0503 20:43:30.736685 20240 net.cpp:165] Memory required for data: 400000400
I0503 20:43:30.736685 20240 layer_factory.hpp:77] Creating layer norm2
I0503 20:43:30.736685 20240 net.cpp:100] Creating Layer norm2
I0503 20:43:30.737686 20240 net.cpp:434] norm2 <- pool2
I0503 20:43:30.737686 20240 net.cpp:408] norm2 -> norm2
I0503 20:43:30.738684 20240 net.cpp:150] Setting up norm2
I0503 20:43:30.738684 20240 net.cpp:157] Top shape: 100 32 25 25 (2000000)
I0503 20:43:30.738684 20240 net.cpp:165] Memory required for data: 408000400
I0503 20:43:30.738684 20240 layer_factory.hpp:77] Creating layer conv3
I0503 20:43:30.739686 20240 net.cpp:100] Creating Layer conv3
I0503 20:43:30.739686 20240 net.cpp:434] conv3 <- norm2
I0503 20:43:30.739686 20240 net.cpp:408] conv3 -> conv3
I0503 20:43:30.740685 20240 net.cpp:150] Setting up conv3
I0503 20:43:30.740685 20240 net.cpp:157] Top shape: 100 64 25 25 (4000000)
I0503 20:43:30.740685 20240 net.cpp:165] Memory required for data: 424000400
I0503 20:43:30.741684 20240 layer_factory.hpp:77] Creating layer relu3
I0503 20:43:30.741684 20240 net.cpp:100] Creating Layer relu3
I0503 20:43:30.741684 20240 net.cpp:434] relu3 <- conv3
I0503 20:43:30.741684 20240 net.cpp:395] relu3 -> conv3 (in-place)
I0503 20:43:30.741684 20240 net.cpp:150] Setting up relu3
I0503 20:43:30.741684 20240 net.cpp:157] Top shape: 100 64 25 25 (4000000)
I0503 20:43:30.741684 20240 net.cpp:165] Memory required for data: 440000400
I0503 20:43:30.742683 20240 layer_factory.hpp:77] Creating layer pool3
I0503 20:43:30.742683 20240 net.cpp:100] Creating Layer pool3
I0503 20:43:30.742683 20240 net.cpp:434] pool3 <- conv3
I0503 20:43:30.742683 20240 net.cpp:408] pool3 -> pool3
I0503 20:43:30.743685 20240 net.cpp:150] Setting up pool3
I0503 20:43:30.743685 20240 net.cpp:157] Top shape: 100 64 12 12 (921600)
I0503 20:43:30.743685 20240 net.cpp:165] Memory required for data: 443686800
I0503 20:43:30.743685 20240 layer_factory.hpp:77] Creating layer ip1
I0503 20:43:30.743685 20240 net.cpp:100] Creating Layer ip1
I0503 20:43:30.743685 20240 net.cpp:434] ip1 <- pool3
I0503 20:43:30.744684 20240 net.cpp:408] ip1 -> ip1
I0503 20:43:30.755234 20240 net.cpp:150] Setting up ip1
I0503 20:43:30.755234 20240 net.cpp:157] Top shape: 100 128 (12800)
I0503 20:43:30.756206 20240 net.cpp:165] Memory required for data: 443738000
I0503 20:43:30.756206 20240 layer_factory.hpp:77] Creating layer ip2
I0503 20:43:30.756206 20240 net.cpp:100] Creating Layer ip2
I0503 20:43:30.756206 20240 net.cpp:434] ip2 <- ip1
I0503 20:43:30.756206 20240 net.cpp:408] ip2 -> ip2
I0503 20:43:30.756206 20240 net.cpp:150] Setting up ip2
I0503 20:43:30.757207 20240 net.cpp:157] Top shape: 100 2 (200)
I0503 20:43:30.757207 20240 net.cpp:165] Memory required for data: 443738800
I0503 20:43:30.757207 20240 layer_factory.hpp:77] Creating layer loss
I0503 20:43:30.757207 20240 net.cpp:100] Creating Layer loss
I0503 20:43:30.757207 20240 net.cpp:434] loss <- ip2
I0503 20:43:30.757207 20240 net.cpp:434] loss <- label
I0503 20:43:30.757207 20240 net.cpp:408] loss -> loss
I0503 20:43:30.757207 20240 layer_factory.hpp:77] Creating layer loss
…
